2022-08-01 16:46:38,632 INFO     >>>The net is:
2022-08-01 16:46:38,632 INFO     BAN_Model(
  (graph_model): GraphModel(
    (gcn1): GCN(
      (apply_mod): NodeApplyModule(
        (linear): Linear(in_features=300, out_features=512, bias=True)
      )
    )
    (gcn2): GCN(
      (apply_mod): NodeApplyModule(
        (linear): Linear(in_features=512, out_features=1024, bias=True)
      )
    )
  )
  (w_emb): WordEmbedding(
    (emb): Embedding(293, 300, padding_idx=292)
    (emb_): Embedding(293, 300, padding_idx=292)
    (dropout): Dropout(p=0.0, inplace=False)
  )
  (q_emb): QuestionEmbedding(
    (rnn): GRU(600, 1024, batch_first=True)
  )
  (k_emb): WordEmbedding(
    (emb): Embedding(293, 300, padding_idx=292)
    (emb_): Embedding(293, 300, padding_idx=292)
    (dropout): Dropout(p=0.0, inplace=False)
  )
  (keywords_emb): QuestionEmbedding(
    (rnn): GRU(600, 1024, batch_first=True)
  )
  (close_att): BiAttention(
    (logits): BCNet(
      (v_net): FCNet(
        (main): Sequential(
          (0): Dropout(p=0.2, inplace=False)
          (1): Linear(in_features=576, out_features=3072, bias=True)
          (2): ReLU()
        )
      )
      (q_net): FCNet(
        (main): Sequential(
          (0): Dropout(p=0.2, inplace=False)
          (1): Linear(in_features=1024, out_features=3072, bias=True)
          (2): ReLU()
        )
      )
      (dropout): Dropout(p=0.5, inplace=False)
      (p_net): AvgPool1d(kernel_size=(3,), stride=(3,), padding=(0,))
    )
  )
  (close_resnet): BiResNet(
    (b_net): ModuleList(
      (0): BCNet(
        (v_net): FCNet(
          (main): Sequential(
            (0): Dropout(p=0.2, inplace=False)
            (1): Linear(in_features=576, out_features=1024, bias=True)
            (2): ReLU()
          )
        )
        (q_net): FCNet(
          (main): Sequential(
            (0): Dropout(p=0.2, inplace=False)
            (1): Linear(in_features=1024, out_features=1024, bias=True)
            (2): ReLU()
          )
        )
        (dropout): Dropout(p=0.5, inplace=False)
      )
      (1): BCNet(
        (v_net): FCNet(
          (main): Sequential(
            (0): Dropout(p=0.2, inplace=False)
            (1): Linear(in_features=576, out_features=1024, bias=True)
            (2): ReLU()
          )
        )
        (q_net): FCNet(
          (main): Sequential(
            (0): Dropout(p=0.2, inplace=False)
            (1): Linear(in_features=1024, out_features=1024, bias=True)
            (2): ReLU()
          )
        )
        (dropout): Dropout(p=0.5, inplace=False)
      )
      (2): BCNet(
        (v_net): FCNet(
          (main): Sequential(
            (0): Dropout(p=0.2, inplace=False)
            (1): Linear(in_features=576, out_features=1024, bias=True)
            (2): ReLU()
          )
        )
        (q_net): FCNet(
          (main): Sequential(
            (0): Dropout(p=0.2, inplace=False)
            (1): Linear(in_features=1024, out_features=1024, bias=True)
            (2): ReLU()
          )
        )
        (dropout): Dropout(p=0.5, inplace=False)
      )
      (3): BCNet(
        (v_net): FCNet(
          (main): Sequential(
            (0): Dropout(p=0.2, inplace=False)
            (1): Linear(in_features=576, out_features=1024, bias=True)
            (2): ReLU()
          )
        )
        (q_net): FCNet(
          (main): Sequential(
            (0): Dropout(p=0.2, inplace=False)
            (1): Linear(in_features=1024, out_features=1024, bias=True)
            (2): ReLU()
          )
        )
        (dropout): Dropout(p=0.5, inplace=False)
      )
      (4): BCNet(
        (v_net): FCNet(
          (main): Sequential(
            (0): Dropout(p=0.2, inplace=False)
            (1): Linear(in_features=576, out_features=1024, bias=True)
            (2): ReLU()
          )
        )
        (q_net): FCNet(
          (main): Sequential(
            (0): Dropout(p=0.2, inplace=False)
            (1): Linear(in_features=1024, out_features=1024, bias=True)
            (2): ReLU()
          )
        )
        (dropout): Dropout(p=0.5, inplace=False)
      )
      (5): BCNet(
        (v_net): FCNet(
          (main): Sequential(
            (0): Dropout(p=0.2, inplace=False)
            (1): Linear(in_features=576, out_features=1024, bias=True)
            (2): ReLU()
          )
        )
        (q_net): FCNet(
          (main): Sequential(
            (0): Dropout(p=0.2, inplace=False)
            (1): Linear(in_features=1024, out_features=1024, bias=True)
            (2): ReLU()
          )
        )
        (dropout): Dropout(p=0.5, inplace=False)
      )
      (6): BCNet(
        (v_net): FCNet(
          (main): Sequential(
            (0): Dropout(p=0.2, inplace=False)
            (1): Linear(in_features=576, out_features=1024, bias=True)
            (2): ReLU()
          )
        )
        (q_net): FCNet(
          (main): Sequential(
            (0): Dropout(p=0.2, inplace=False)
            (1): Linear(in_features=1024, out_features=1024, bias=True)
            (2): ReLU()
          )
        )
        (dropout): Dropout(p=0.5, inplace=False)
      )
      (7): BCNet(
        (v_net): FCNet(
          (main): Sequential(
            (0): Dropout(p=0.2, inplace=False)
            (1): Linear(in_features=576, out_features=1024, bias=True)
            (2): ReLU()
          )
        )
        (q_net): FCNet(
          (main): Sequential(
            (0): Dropout(p=0.2, inplace=False)
            (1): Linear(in_features=1024, out_features=1024, bias=True)
            (2): ReLU()
          )
        )
        (dropout): Dropout(p=0.5, inplace=False)
      )
      (8): BCNet(
        (v_net): FCNet(
          (main): Sequential(
            (0): Dropout(p=0.2, inplace=False)
            (1): Linear(in_features=576, out_features=1024, bias=True)
            (2): ReLU()
          )
        )
        (q_net): FCNet(
          (main): Sequential(
            (0): Dropout(p=0.2, inplace=False)
            (1): Linear(in_features=1024, out_features=1024, bias=True)
            (2): ReLU()
          )
        )
        (dropout): Dropout(p=0.5, inplace=False)
      )
      (9): BCNet(
        (v_net): FCNet(
          (main): Sequential(
            (0): Dropout(p=0.2, inplace=False)
            (1): Linear(in_features=576, out_features=1024, bias=True)
            (2): ReLU()
          )
        )
        (q_net): FCNet(
          (main): Sequential(
            (0): Dropout(p=0.2, inplace=False)
            (1): Linear(in_features=1024, out_features=1024, bias=True)
            (2): ReLU()
          )
        )
        (dropout): Dropout(p=0.5, inplace=False)
      )
    )
    (q_prj): ModuleList(
      (0): FCNet(
        (main): Sequential(
          (0): Dropout(p=0.2, inplace=False)
          (1): Linear(in_features=1024, out_features=1024, bias=True)
        )
      )
      (1): FCNet(
        (main): Sequential(
          (0): Dropout(p=0.2, inplace=False)
          (1): Linear(in_features=1024, out_features=1024, bias=True)
        )
      )
      (2): FCNet(
        (main): Sequential(
          (0): Dropout(p=0.2, inplace=False)
          (1): Linear(in_features=1024, out_features=1024, bias=True)
        )
      )
      (3): FCNet(
        (main): Sequential(
          (0): Dropout(p=0.2, inplace=False)
          (1): Linear(in_features=1024, out_features=1024, bias=True)
        )
      )
      (4): FCNet(
        (main): Sequential(
          (0): Dropout(p=0.2, inplace=False)
          (1): Linear(in_features=1024, out_features=1024, bias=True)
        )
      )
      (5): FCNet(
        (main): Sequential(
          (0): Dropout(p=0.2, inplace=False)
          (1): Linear(in_features=1024, out_features=1024, bias=True)
        )
      )
      (6): FCNet(
        (main): Sequential(
          (0): Dropout(p=0.2, inplace=False)
          (1): Linear(in_features=1024, out_features=1024, bias=True)
        )
      )
      (7): FCNet(
        (main): Sequential(
          (0): Dropout(p=0.2, inplace=False)
          (1): Linear(in_features=1024, out_features=1024, bias=True)
        )
      )
      (8): FCNet(
        (main): Sequential(
          (0): Dropout(p=0.2, inplace=False)
          (1): Linear(in_features=1024, out_features=1024, bias=True)
        )
      )
      (9): FCNet(
        (main): Sequential(
          (0): Dropout(p=0.2, inplace=False)
          (1): Linear(in_features=1024, out_features=1024, bias=True)
        )
      )
    )
    (c_prj): ModuleList()
  )
  (close_classifier): SimpleClassifier(
    (main): Sequential(
      (0): Linear(in_features=1024, out_features=2048, bias=True)
      (1): ReLU()
      (2): Dropout(p=0.5, inplace=False)
      (3): Linear(in_features=2048, out_features=35, bias=True)
    )
  )
  (open_att): BiAttention(
    (logits): BCNet(
      (v_net): FCNet(
        (main): Sequential(
          (0): Dropout(p=0.2, inplace=False)
          (1): Linear(in_features=576, out_features=3072, bias=True)
          (2): ReLU()
        )
      )
      (q_net): FCNet(
        (main): Sequential(
          (0): Dropout(p=0.2, inplace=False)
          (1): Linear(in_features=1024, out_features=3072, bias=True)
          (2): ReLU()
        )
      )
      (dropout): Dropout(p=0.5, inplace=False)
      (p_net): AvgPool1d(kernel_size=(3,), stride=(3,), padding=(0,))
    )
  )
  (open_resnet): BiResNet(
    (b_net): ModuleList(
      (0): BCNet(
        (v_net): FCNet(
          (main): Sequential(
            (0): Dropout(p=0.2, inplace=False)
            (1): Linear(in_features=576, out_features=1024, bias=True)
            (2): ReLU()
          )
        )
        (q_net): FCNet(
          (main): Sequential(
            (0): Dropout(p=0.2, inplace=False)
            (1): Linear(in_features=1024, out_features=1024, bias=True)
            (2): ReLU()
          )
        )
        (dropout): Dropout(p=0.5, inplace=False)
      )
      (1): BCNet(
        (v_net): FCNet(
          (main): Sequential(
            (0): Dropout(p=0.2, inplace=False)
            (1): Linear(in_features=576, out_features=1024, bias=True)
            (2): ReLU()
          )
        )
        (q_net): FCNet(
          (main): Sequential(
            (0): Dropout(p=0.2, inplace=False)
            (1): Linear(in_features=1024, out_features=1024, bias=True)
            (2): ReLU()
          )
        )
        (dropout): Dropout(p=0.5, inplace=False)
      )
      (2): BCNet(
        (v_net): FCNet(
          (main): Sequential(
            (0): Dropout(p=0.2, inplace=False)
            (1): Linear(in_features=576, out_features=1024, bias=True)
            (2): ReLU()
          )
        )
        (q_net): FCNet(
          (main): Sequential(
            (0): Dropout(p=0.2, inplace=False)
            (1): Linear(in_features=1024, out_features=1024, bias=True)
            (2): ReLU()
          )
        )
        (dropout): Dropout(p=0.5, inplace=False)
      )
      (3): BCNet(
        (v_net): FCNet(
          (main): Sequential(
            (0): Dropout(p=0.2, inplace=False)
            (1): Linear(in_features=576, out_features=1024, bias=True)
            (2): ReLU()
          )
        )
        (q_net): FCNet(
          (main): Sequential(
            (0): Dropout(p=0.2, inplace=False)
            (1): Linear(in_features=1024, out_features=1024, bias=True)
            (2): ReLU()
          )
        )
        (dropout): Dropout(p=0.5, inplace=False)
      )
      (4): BCNet(
        (v_net): FCNet(
          (main): Sequential(
            (0): Dropout(p=0.2, inplace=False)
            (1): Linear(in_features=576, out_features=1024, bias=True)
            (2): ReLU()
          )
        )
        (q_net): FCNet(
          (main): Sequential(
            (0): Dropout(p=0.2, inplace=False)
            (1): Linear(in_features=1024, out_features=1024, bias=True)
            (2): ReLU()
          )
        )
        (dropout): Dropout(p=0.5, inplace=False)
      )
      (5): BCNet(
        (v_net): FCNet(
          (main): Sequential(
            (0): Dropout(p=0.2, inplace=False)
            (1): Linear(in_features=576, out_features=1024, bias=True)
            (2): ReLU()
          )
        )
        (q_net): FCNet(
          (main): Sequential(
            (0): Dropout(p=0.2, inplace=False)
            (1): Linear(in_features=1024, out_features=1024, bias=True)
            (2): ReLU()
          )
        )
        (dropout): Dropout(p=0.5, inplace=False)
      )
      (6): BCNet(
        (v_net): FCNet(
          (main): Sequential(
            (0): Dropout(p=0.2, inplace=False)
            (1): Linear(in_features=576, out_features=1024, bias=True)
            (2): ReLU()
          )
        )
        (q_net): FCNet(
          (main): Sequential(
            (0): Dropout(p=0.2, inplace=False)
            (1): Linear(in_features=1024, out_features=1024, bias=True)
            (2): ReLU()
          )
        )
        (dropout): Dropout(p=0.5, inplace=False)
      )
      (7): BCNet(
        (v_net): FCNet(
          (main): Sequential(
            (0): Dropout(p=0.2, inplace=False)
            (1): Linear(in_features=576, out_features=1024, bias=True)
            (2): ReLU()
          )
        )
        (q_net): FCNet(
          (main): Sequential(
            (0): Dropout(p=0.2, inplace=False)
            (1): Linear(in_features=1024, out_features=1024, bias=True)
            (2): ReLU()
          )
        )
        (dropout): Dropout(p=0.5, inplace=False)
      )
      (8): BCNet(
        (v_net): FCNet(
          (main): Sequential(
            (0): Dropout(p=0.2, inplace=False)
            (1): Linear(in_features=576, out_features=1024, bias=True)
            (2): ReLU()
          )
        )
        (q_net): FCNet(
          (main): Sequential(
            (0): Dropout(p=0.2, inplace=False)
            (1): Linear(in_features=1024, out_features=1024, bias=True)
            (2): ReLU()
          )
        )
        (dropout): Dropout(p=0.5, inplace=False)
      )
      (9): BCNet(
        (v_net): FCNet(
          (main): Sequential(
            (0): Dropout(p=0.2, inplace=False)
            (1): Linear(in_features=576, out_features=1024, bias=True)
            (2): ReLU()
          )
        )
        (q_net): FCNet(
          (main): Sequential(
            (0): Dropout(p=0.2, inplace=False)
            (1): Linear(in_features=1024, out_features=1024, bias=True)
            (2): ReLU()
          )
        )
        (dropout): Dropout(p=0.5, inplace=False)
      )
    )
    (q_prj): ModuleList(
      (0): FCNet(
        (main): Sequential(
          (0): Dropout(p=0.2, inplace=False)
          (1): Linear(in_features=1024, out_features=1024, bias=True)
        )
      )
      (1): FCNet(
        (main): Sequential(
          (0): Dropout(p=0.2, inplace=False)
          (1): Linear(in_features=1024, out_features=1024, bias=True)
        )
      )
      (2): FCNet(
        (main): Sequential(
          (0): Dropout(p=0.2, inplace=False)
          (1): Linear(in_features=1024, out_features=1024, bias=True)
        )
      )
      (3): FCNet(
        (main): Sequential(
          (0): Dropout(p=0.2, inplace=False)
          (1): Linear(in_features=1024, out_features=1024, bias=True)
        )
      )
      (4): FCNet(
        (main): Sequential(
          (0): Dropout(p=0.2, inplace=False)
          (1): Linear(in_features=1024, out_features=1024, bias=True)
        )
      )
      (5): FCNet(
        (main): Sequential(
          (0): Dropout(p=0.2, inplace=False)
          (1): Linear(in_features=1024, out_features=1024, bias=True)
        )
      )
      (6): FCNet(
        (main): Sequential(
          (0): Dropout(p=0.2, inplace=False)
          (1): Linear(in_features=1024, out_features=1024, bias=True)
        )
      )
      (7): FCNet(
        (main): Sequential(
          (0): Dropout(p=0.2, inplace=False)
          (1): Linear(in_features=1024, out_features=1024, bias=True)
        )
      )
      (8): FCNet(
        (main): Sequential(
          (0): Dropout(p=0.2, inplace=False)
          (1): Linear(in_features=1024, out_features=1024, bias=True)
        )
      )
      (9): FCNet(
        (main): Sequential(
          (0): Dropout(p=0.2, inplace=False)
          (1): Linear(in_features=1024, out_features=1024, bias=True)
        )
      )
    )
    (c_prj): ModuleList()
  )
  (open_classifier): SimpleClassifier(
    (main): Sequential(
      (0): Linear(in_features=1024, out_features=2048, bias=True)
      (1): ReLU()
      (2): Dropout(p=0.5, inplace=False)
      (3): Linear(in_features=2048, out_features=219, bias=True)
    )
  )
  (bbn_classifier): SimpleClassifier(
    (main): Sequential(
      (0): Linear(in_features=2048, out_features=3072, bias=True)
      (1): ReLU()
      (2): Dropout(p=0.5, inplace=False)
      (3): Linear(in_features=3072, out_features=254, bias=True)
    )
  )
  (typeatt): typeAttention(
    (w_emb): WordEmbedding(
      (emb): Embedding(293, 300, padding_idx=292)
      (dropout): Dropout(p=0.0, inplace=False)
    )
    (q_emb): QuestionEmbedding(
      (rnn): GRU(300, 1024, batch_first=True)
    )
    (q_final): QuestionAttention(
      (tanh_gate): Linear(in_features=1324, out_features=1024, bias=True)
      (sigmoid_gate): Linear(in_features=1324, out_features=1024, bias=True)
      (attn): Linear(in_features=1024, out_features=1, bias=True)
    )
    (f_fc1): Linear(in_features=1024, out_features=2048, bias=True)
    (f_fc2): Linear(in_features=2048, out_features=1024, bias=True)
    (f_fc3): Linear(in_features=1024, out_features=1024, bias=True)
  )
  (ae): Auto_Encoder_Model(
    (conv1): Conv2d(1, 64, kernel_size=(3, 3), stride=(1, 1), padding=(1, 1))
    (max_pool1): MaxPool2d(kernel_size=2, stride=2, padding=0, dilation=1, ceil_mode=False)
    (conv2): Conv2d(64, 32, kernel_size=(3, 3), stride=(1, 1), padding=(1, 1))
    (max_pool2): MaxPool2d(kernel_size=2, stride=2, padding=0, dilation=1, ceil_mode=False)
    (conv3): Conv2d(32, 16, kernel_size=(3, 3), stride=(1, 1), padding=(1, 1))
    (tran_conv1): ConvTranspose2d(16, 32, kernel_size=(3, 3), stride=(2, 2), padding=(1, 1), output_padding=(1, 1))
    (conv4): Conv2d(32, 32, kernel_size=(3, 3), stride=(1, 1), padding=(1, 1))
    (tran_conv2): ConvTranspose2d(32, 64, kernel_size=(3, 3), stride=(2, 2), padding=(1, 1), output_padding=(1, 1))
    (conv5): Conv2d(64, 1, kernel_size=(3, 3), stride=(1, 1), padding=(1, 1))
  )
  (convert): Linear(in_features=16384, out_features=64, bias=True)
  (clip): CLIP(
    (visual): VisionTransformer(
      (conv1): Conv2d(3, 768, kernel_size=(32, 32), stride=(32, 32), bias=False)
      (ln_pre): LayerNorm((768,), eps=1e-05, elementwise_affine=True)
      (transformer): Transformer(
        (resblocks): Sequential(
          (0): ResidualAttentionBlock(
            (attn): MultiheadAttention(
              (out_proj): NonDynamicallyQuantizableLinear(in_features=768, out_features=768, bias=True)
            )
            (ln_1): LayerNorm((768,), eps=1e-05, elementwise_affine=True)
            (mlp): Sequential(
              (c_fc): Linear(in_features=768, out_features=3072, bias=True)
              (gelu): QuickGELU()
              (c_proj): Linear(in_features=3072, out_features=768, bias=True)
            )
            (ln_2): LayerNorm((768,), eps=1e-05, elementwise_affine=True)
          )
          (1): ResidualAttentionBlock(
            (attn): MultiheadAttention(
              (out_proj): NonDynamicallyQuantizableLinear(in_features=768, out_features=768, bias=True)
            )
            (ln_1): LayerNorm((768,), eps=1e-05, elementwise_affine=True)
            (mlp): Sequential(
              (c_fc): Linear(in_features=768, out_features=3072, bias=True)
              (gelu): QuickGELU()
              (c_proj): Linear(in_features=3072, out_features=768, bias=True)
            )
            (ln_2): LayerNorm((768,), eps=1e-05, elementwise_affine=True)
          )
          (2): ResidualAttentionBlock(
            (attn): MultiheadAttention(
              (out_proj): NonDynamicallyQuantizableLinear(in_features=768, out_features=768, bias=True)
            )
            (ln_1): LayerNorm((768,), eps=1e-05, elementwise_affine=True)
            (mlp): Sequential(
              (c_fc): Linear(in_features=768, out_features=3072, bias=True)
              (gelu): QuickGELU()
              (c_proj): Linear(in_features=3072, out_features=768, bias=True)
            )
            (ln_2): LayerNorm((768,), eps=1e-05, elementwise_affine=True)
          )
          (3): ResidualAttentionBlock(
            (attn): MultiheadAttention(
              (out_proj): NonDynamicallyQuantizableLinear(in_features=768, out_features=768, bias=True)
            )
            (ln_1): LayerNorm((768,), eps=1e-05, elementwise_affine=True)
            (mlp): Sequential(
              (c_fc): Linear(in_features=768, out_features=3072, bias=True)
              (gelu): QuickGELU()
              (c_proj): Linear(in_features=3072, out_features=768, bias=True)
            )
            (ln_2): LayerNorm((768,), eps=1e-05, elementwise_affine=True)
          )
          (4): ResidualAttentionBlock(
            (attn): MultiheadAttention(
              (out_proj): NonDynamicallyQuantizableLinear(in_features=768, out_features=768, bias=True)
            )
            (ln_1): LayerNorm((768,), eps=1e-05, elementwise_affine=True)
            (mlp): Sequential(
              (c_fc): Linear(in_features=768, out_features=3072, bias=True)
              (gelu): QuickGELU()
              (c_proj): Linear(in_features=3072, out_features=768, bias=True)
            )
            (ln_2): LayerNorm((768,), eps=1e-05, elementwise_affine=True)
          )
          (5): ResidualAttentionBlock(
            (attn): MultiheadAttention(
              (out_proj): NonDynamicallyQuantizableLinear(in_features=768, out_features=768, bias=True)
            )
            (ln_1): LayerNorm((768,), eps=1e-05, elementwise_affine=True)
            (mlp): Sequential(
              (c_fc): Linear(in_features=768, out_features=3072, bias=True)
              (gelu): QuickGELU()
              (c_proj): Linear(in_features=3072, out_features=768, bias=True)
            )
            (ln_2): LayerNorm((768,), eps=1e-05, elementwise_affine=True)
          )
          (6): ResidualAttentionBlock(
            (attn): MultiheadAttention(
              (out_proj): NonDynamicallyQuantizableLinear(in_features=768, out_features=768, bias=True)
            )
            (ln_1): LayerNorm((768,), eps=1e-05, elementwise_affine=True)
            (mlp): Sequential(
              (c_fc): Linear(in_features=768, out_features=3072, bias=True)
              (gelu): QuickGELU()
              (c_proj): Linear(in_features=3072, out_features=768, bias=True)
            )
            (ln_2): LayerNorm((768,), eps=1e-05, elementwise_affine=True)
          )
          (7): ResidualAttentionBlock(
            (attn): MultiheadAttention(
              (out_proj): NonDynamicallyQuantizableLinear(in_features=768, out_features=768, bias=True)
            )
            (ln_1): LayerNorm((768,), eps=1e-05, elementwise_affine=True)
            (mlp): Sequential(
              (c_fc): Linear(in_features=768, out_features=3072, bias=True)
              (gelu): QuickGELU()
              (c_proj): Linear(in_features=3072, out_features=768, bias=True)
            )
            (ln_2): LayerNorm((768,), eps=1e-05, elementwise_affine=True)
          )
          (8): ResidualAttentionBlock(
            (attn): MultiheadAttention(
              (out_proj): NonDynamicallyQuantizableLinear(in_features=768, out_features=768, bias=True)
            )
            (ln_1): LayerNorm((768,), eps=1e-05, elementwise_affine=True)
            (mlp): Sequential(
              (c_fc): Linear(in_features=768, out_features=3072, bias=True)
              (gelu): QuickGELU()
              (c_proj): Linear(in_features=3072, out_features=768, bias=True)
            )
            (ln_2): LayerNorm((768,), eps=1e-05, elementwise_affine=True)
          )
          (9): ResidualAttentionBlock(
            (attn): MultiheadAttention(
              (out_proj): NonDynamicallyQuantizableLinear(in_features=768, out_features=768, bias=True)
            )
            (ln_1): LayerNorm((768,), eps=1e-05, elementwise_affine=True)
            (mlp): Sequential(
              (c_fc): Linear(in_features=768, out_features=3072, bias=True)
              (gelu): QuickGELU()
              (c_proj): Linear(in_features=3072, out_features=768, bias=True)
            )
            (ln_2): LayerNorm((768,), eps=1e-05, elementwise_affine=True)
          )
          (10): ResidualAttentionBlock(
            (attn): MultiheadAttention(
              (out_proj): NonDynamicallyQuantizableLinear(in_features=768, out_features=768, bias=True)
            )
            (ln_1): LayerNorm((768,), eps=1e-05, elementwise_affine=True)
            (mlp): Sequential(
              (c_fc): Linear(in_features=768, out_features=3072, bias=True)
              (gelu): QuickGELU()
              (c_proj): Linear(in_features=3072, out_features=768, bias=True)
            )
            (ln_2): LayerNorm((768,), eps=1e-05, elementwise_affine=True)
          )
          (11): ResidualAttentionBlock(
            (attn): MultiheadAttention(
              (out_proj): NonDynamicallyQuantizableLinear(in_features=768, out_features=768, bias=True)
            )
            (ln_1): LayerNorm((768,), eps=1e-05, elementwise_affine=True)
            (mlp): Sequential(
              (c_fc): Linear(in_features=768, out_features=3072, bias=True)
              (gelu): QuickGELU()
              (c_proj): Linear(in_features=3072, out_features=768, bias=True)
            )
            (ln_2): LayerNorm((768,), eps=1e-05, elementwise_affine=True)
          )
        )
      )
      (ln_post): LayerNorm((768,), eps=1e-05, elementwise_affine=True)
    )
    (transformer): Transformer(
      (resblocks): Sequential(
        (0): ResidualAttentionBlock(
          (attn): MultiheadAttention(
            (out_proj): NonDynamicallyQuantizableLinear(in_features=512, out_features=512, bias=True)
          )
          (ln_1): LayerNorm((512,), eps=1e-05, elementwise_affine=True)
          (mlp): Sequential(
            (c_fc): Linear(in_features=512, out_features=2048, bias=True)
            (gelu): QuickGELU()
            (c_proj): Linear(in_features=2048, out_features=512, bias=True)
          )
          (ln_2): LayerNorm((512,), eps=1e-05, elementwise_affine=True)
        )
        (1): ResidualAttentionBlock(
          (attn): MultiheadAttention(
            (out_proj): NonDynamicallyQuantizableLinear(in_features=512, out_features=512, bias=True)
          )
          (ln_1): LayerNorm((512,), eps=1e-05, elementwise_affine=True)
          (mlp): Sequential(
            (c_fc): Linear(in_features=512, out_features=2048, bias=True)
            (gelu): QuickGELU()
            (c_proj): Linear(in_features=2048, out_features=512, bias=True)
          )
          (ln_2): LayerNorm((512,), eps=1e-05, elementwise_affine=True)
        )
        (2): ResidualAttentionBlock(
          (attn): MultiheadAttention(
            (out_proj): NonDynamicallyQuantizableLinear(in_features=512, out_features=512, bias=True)
          )
          (ln_1): LayerNorm((512,), eps=1e-05, elementwise_affine=True)
          (mlp): Sequential(
            (c_fc): Linear(in_features=512, out_features=2048, bias=True)
            (gelu): QuickGELU()
            (c_proj): Linear(in_features=2048, out_features=512, bias=True)
          )
          (ln_2): LayerNorm((512,), eps=1e-05, elementwise_affine=True)
        )
        (3): ResidualAttentionBlock(
          (attn): MultiheadAttention(
            (out_proj): NonDynamicallyQuantizableLinear(in_features=512, out_features=512, bias=True)
          )
          (ln_1): LayerNorm((512,), eps=1e-05, elementwise_affine=True)
          (mlp): Sequential(
            (c_fc): Linear(in_features=512, out_features=2048, bias=True)
            (gelu): QuickGELU()
            (c_proj): Linear(in_features=2048, out_features=512, bias=True)
          )
          (ln_2): LayerNorm((512,), eps=1e-05, elementwise_affine=True)
        )
        (4): ResidualAttentionBlock(
          (attn): MultiheadAttention(
            (out_proj): NonDynamicallyQuantizableLinear(in_features=512, out_features=512, bias=True)
          )
          (ln_1): LayerNorm((512,), eps=1e-05, elementwise_affine=True)
          (mlp): Sequential(
            (c_fc): Linear(in_features=512, out_features=2048, bias=True)
            (gelu): QuickGELU()
            (c_proj): Linear(in_features=2048, out_features=512, bias=True)
          )
          (ln_2): LayerNorm((512,), eps=1e-05, elementwise_affine=True)
        )
        (5): ResidualAttentionBlock(
          (attn): MultiheadAttention(
            (out_proj): NonDynamicallyQuantizableLinear(in_features=512, out_features=512, bias=True)
          )
          (ln_1): LayerNorm((512,), eps=1e-05, elementwise_affine=True)
          (mlp): Sequential(
            (c_fc): Linear(in_features=512, out_features=2048, bias=True)
            (gelu): QuickGELU()
            (c_proj): Linear(in_features=2048, out_features=512, bias=True)
          )
          (ln_2): LayerNorm((512,), eps=1e-05, elementwise_affine=True)
        )
        (6): ResidualAttentionBlock(
          (attn): MultiheadAttention(
            (out_proj): NonDynamicallyQuantizableLinear(in_features=512, out_features=512, bias=True)
          )
          (ln_1): LayerNorm((512,), eps=1e-05, elementwise_affine=True)
          (mlp): Sequential(
            (c_fc): Linear(in_features=512, out_features=2048, bias=True)
            (gelu): QuickGELU()
            (c_proj): Linear(in_features=2048, out_features=512, bias=True)
          )
          (ln_2): LayerNorm((512,), eps=1e-05, elementwise_affine=True)
        )
        (7): ResidualAttentionBlock(
          (attn): MultiheadAttention(
            (out_proj): NonDynamicallyQuantizableLinear(in_features=512, out_features=512, bias=True)
          )
          (ln_1): LayerNorm((512,), eps=1e-05, elementwise_affine=True)
          (mlp): Sequential(
            (c_fc): Linear(in_features=512, out_features=2048, bias=True)
            (gelu): QuickGELU()
            (c_proj): Linear(in_features=2048, out_features=512, bias=True)
          )
          (ln_2): LayerNorm((512,), eps=1e-05, elementwise_affine=True)
        )
        (8): ResidualAttentionBlock(
          (attn): MultiheadAttention(
            (out_proj): NonDynamicallyQuantizableLinear(in_features=512, out_features=512, bias=True)
          )
          (ln_1): LayerNorm((512,), eps=1e-05, elementwise_affine=True)
          (mlp): Sequential(
            (c_fc): Linear(in_features=512, out_features=2048, bias=True)
            (gelu): QuickGELU()
            (c_proj): Linear(in_features=2048, out_features=512, bias=True)
          )
          (ln_2): LayerNorm((512,), eps=1e-05, elementwise_affine=True)
        )
        (9): ResidualAttentionBlock(
          (attn): MultiheadAttention(
            (out_proj): NonDynamicallyQuantizableLinear(in_features=512, out_features=512, bias=True)
          )
          (ln_1): LayerNorm((512,), eps=1e-05, elementwise_affine=True)
          (mlp): Sequential(
            (c_fc): Linear(in_features=512, out_features=2048, bias=True)
            (gelu): QuickGELU()
            (c_proj): Linear(in_features=2048, out_features=512, bias=True)
          )
          (ln_2): LayerNorm((512,), eps=1e-05, elementwise_affine=True)
        )
        (10): ResidualAttentionBlock(
          (attn): MultiheadAttention(
            (out_proj): NonDynamicallyQuantizableLinear(in_features=512, out_features=512, bias=True)
          )
          (ln_1): LayerNorm((512,), eps=1e-05, elementwise_affine=True)
          (mlp): Sequential(
            (c_fc): Linear(in_features=512, out_features=2048, bias=True)
            (gelu): QuickGELU()
            (c_proj): Linear(in_features=2048, out_features=512, bias=True)
          )
          (ln_2): LayerNorm((512,), eps=1e-05, elementwise_affine=True)
        )
        (11): ResidualAttentionBlock(
          (attn): MultiheadAttention(
            (out_proj): NonDynamicallyQuantizableLinear(in_features=512, out_features=512, bias=True)
          )
          (ln_1): LayerNorm((512,), eps=1e-05, elementwise_affine=True)
          (mlp): Sequential(
            (c_fc): Linear(in_features=512, out_features=2048, bias=True)
            (gelu): QuickGELU()
            (c_proj): Linear(in_features=2048, out_features=512, bias=True)
          )
          (ln_2): LayerNorm((512,), eps=1e-05, elementwise_affine=True)
        )
      )
    )
    (token_embedding): Embedding(49408, 512)
    (ln_final): LayerNorm((512,), eps=1e-05, elementwise_affine=True)
  )
)
loading dictionary from ./data/data_slake/dictionary.pkl
loading DAE image data from file: ./data/data_slake/images128x128.pkl
loading CLIP image data from file: ./data/data_slake/images250x250.pkl
loading DAE image data from file: ./data/data_slake/images128x128.pkl
loading CLIP image data from file: ./data/data_slake/images250x250.pkl
load initial weights DAE from: ./data/data_slake/pretrained_ae.pth
…
